nlp_lcrf.pth (torch, 1377 bytes, 1 tensors)

feature_weights f4 [42]
-304.4905 -1483.2719 -376.31534 4.0358424 -890.4783 -1424.4574 -913.5015 -47.515293
-567.7623 -615.7537 -817.7313 -216.43658 -1065.9055 0.22234018 -561.06635 -1066.8478
-709.1369 -0.15991266 -806.1807 0.44967178 -1.5775006 -844.301 -301.93628 -0.68694127
-1.0597827 0.9382401 -453.43463 -0.7032811 -1.0100533 1.5008826 -0.34949 -419.78784
-0.638492 -0.64258754 -0.88250613 -0.3545659 -0.12654911 -1.0408754 -0.70616287 -1.7853656
-0.8016339 1.4332398
00000000: c93e 98c3 b368 b9c4 5d28 bcc3 9f25 8140
00000010: 9c9e 5ec4 a30e b2c4 1960 64c4 a90f 3ec2
00000020: caf0 0dc4 3df0 19c4 ce6e 4cc4 c46f 58c3
00000030: fa3c 85c4 25ad 633e 3f44 0cc4 215b 85c4
00000040: c348 31c4 25c0 23be 918b 49c4 613b e63e
00000050: 8aeb c9bf 4413 53c4 d8f7 96c3 62db 2fbf
00000060: f6a6 87bf 8130 703f a2b7 e2c3 3b0a 34bf
00000070: 6d49 81bf ec1c c03f 5af0 b2be d8e4 d1c3
00000080: 3674 23bf 9e80 24bf eceb 61bf a989 b5be
00000090: 1796 01be 683b 85bf 17c7 34bf dc86 e4bf
000000a0: e137 4dbf 6774 b73f
